best_digit_classifier.pth (torch, 968741 bytes, 10 tensors)

conv1.weight f4 [32, 1, 3, 3]
000000 1c e0 bf 3e 6e 07 c8 3e dc 6c 0b bd 35 a4 d8 3e
       0.3747567 0.39068168 -0.034039363 0.4231278
000010 ec c2 6f 3d ae 22 07 3e 0c c0 b5 bd f2 95 aa 3e
       0.0585355 0.13196823 -0.08874521 0.33317524
000020 73 44 d2 3e 70 88 42 be af ee e7 3e 2c ca 57 3e
       0.41067848 -0.1899736 0.4529929 0.21073216
000030 51 c8 9e 3e b7 19 3d 3e cf db 81 3e 86 d0 4d 3c
       0.31012204 0.1846684 0.25363013 0.012561923
000040 b5 ff c7 3e b9 21 1c 3e 18 59 1f be b6 02 ae 3d
       0.39062276 0.15247239 -0.1556133 0.08496611
000050 c8 43 1d be d6 1d 20 bd a8 a2 0a be 3e 6e 62 3e
       -0.15357888 -0.039090954 -0.13538611 0.22112367
000060 1c b8 86 be b3 5b 1d be 90 c4 c0 bd fe 3b 4d be
       -0.2631234 -0.15367012 -0.09412491 -0.20042416
000070 4b dd 00 3d 5c 90 a8 be 70 21 9a 3e d6 f9 90 be
       0.03146104 -0.32922637 0.30103636 -0.2831561
000080 64 c2 83 3e b6 37 63 3d 3b aa dd bd 4b ed 52 3e
       0.25734246 0.055473052 -0.108234845 0.20598333
000090 53 17 e7 3d 6c 4c d0 3e ef 49 21 3e 0d 4c 27 bc
       0.112837456 0.40683305 0.1575086 -0.010211003
0000a0 b5 68 7a 3e 72 65 e7 3c c7 c9 59 3e ee 6d e2 3e
       0.24454005 0.028246615 0.21268378 0.44224495
0000b0 17 ce a2 3e b8 38 15 be 28 0a 45 3e 40 4b 74 3d
       0.3179786 -0.14572418 0.19242156 0.059642076
0000c0 4e 57 2d 3e 5e 0b 50 be c3 f1 a8 be b3 e0 03 be
       0.16927835 -0.20316836 -0.3299695 -0.12878685
0000d0 be e7 82 be e4 09 8c 3e 70 dd 6c 3e 89 0a 97 3e
       -0.2556743 0.27351296 0.23131347 0.29500225
0000e0 4e cc 31 3e c0 e9 0b 3e a5 e9 db 3e f9 6a 27 be
       0.17363092 0.13663387 0.42951694 -0.163494
0000f0 8a d4 c7 3d e2 ea 06 be 2d 71 d4 3d 2b 19 eb bd
       0.097573355 -0.13175538 0.10373149 -0.1147941
000100 20 2e d1 3d 50 3a 8e bd af 8c 8d 3e 16 4f 4a be
       0.10213876 -0.06944716 0.27646396 -0.19756731
000110 0e 92 4b be 33 95 4b be 42 81 99 3e db 7f e3 3d
       -0.19879934 -0.19881134 0.29981428 0.11108371
000120 60 39 a4 3e df d8 8c be bb 47 a9 be ff 85 85 be
       0.32075024 -0.2750921 -0.33062539 -0.26078793
000130 78 9c 65 be f3 40 0a 3e 4b 72 f4 3d a4 cf 8d 3e
       -0.2242297 0.13501339 0.11935862 0.2769748
000140 f0 45 30 be e3 b0 68 be a0 1a 35 3e ee f7 09 be
       -0.17214179 -0.22723727 0.17685938 -0.13473484
000150 d0 29 4f 3e 4b ff a1 bd 23 42 43 3e 40 9a 84 be
       0.20230794 -0.079100214 0.19068198 -0.25898933
000160 f8 40 2c be 06 21 d0 3d 13 c6 7f 3e a2 c0 26 3d
       -0.16821659 0.10162549 0.24977903 0.040711053
000170 69 9f 86 3e 62 f4 d2 3e fd 27 16 be c8 24 23 be
       0.26293495 0.41202074 -0.14663692 -0.15932
000180 a4 ea fe 3e 1e 85 74 bc 30 ca a7 bd db 22 a5 be
       0.49788392 -0.014924316 -0.08192861 -0.32253155
000190 b0 78 43 be 5b 88 aa 3d f6 36 34 bd e3 c4 77 be
       -0.19089007 0.08326789 -0.043997727 -0.241962
0001a0 d6 1a 00 3c 93 28 69 be 04 cb 90 be a3 f5 3b be
       0.007818898 -0.22769384 -0.2827989 -0.18355422
0001b0 9a 5e 95 be 06 57 59 be 94 99 aa 3e 4b f0 80 3d
       -0.29173738 -0.21224603 0.33320296 0.06295832
0001c0 d0 5e d2 3d 9a 2d 9f be c6 2d 60 be c6 3a e3 bd
       0.1027199 -0.3108948 -0.21892461 -0.110951945
0001d0 ab 7f 55 3d 5a 2c 96 be 43 12 13 be 76 58 4c be
       0.052123707 -0.29330713 -0.14362435 -0.1995562
0001e0 00 28 72 3a c0 05 fe bd 40 39 bd bc 30 4c 67 be
       0.0009237528 -0.124034405 -0.023098588 -0.22587657
0001f0 20 4a 6a be 6e 22 47 be 8a f3 1c bd 80 2e d1 bd
       -0.22879839 -0.19446728 -0.038318194 -0.10213947
000200 2d 4d ef 3e 33 b5 57 bc 6b 6a e4 3e b1 07 8d 3e
       0.46738568 -0.01316576 0.4461244 0.2754493
000210 f6 a8 6c be b0 f0 bd 3e 28 d7 7c 3d 8b d7 02 be
       -0.23111328 0.37097692 0.061728626 -0.12777536
000220 56 aa 8d be 8b ab a9 be 76 51 c3 3d d6 1f 95 bd
       -0.27669019 -0.3313869 0.09537022 -0.07281463
000230 93 e3 04 3e 56 0f 8c be 73 6a 7d 3e 98 8e 7a be
       0.12977438 -0.2735545 0.24747638 -0.24468458
000240 15 11 9c 3d 15 e0 64 3e 07 2e 92 3e ad 65 c9 3e
       0.07620446 0.22351106 0.2855074 0.39335385
000250 d8 74 dd 3e 81 96 43 be c0 d3 59 3e 5e 92 b7 bc
       0.43253207 -0.19100381 0.21272182 -0.02240866
000260 8a fb 16 3d 32 68 44 be fc d6 f0 3e dd 0f de bd
       0.03686098 -0.19180372 0.4703902 -0.108428694
000270 2b c9 7c 3e 76 69 97 3e 04 e8 89 3e c7 5c 1f be
       0.24686114 0.29572648 0.26934826 -0.15562735
000280 98 26 fa 3e f0 10 85 3e f6 a2 2f 3d 9c 66 96 be
       0.4885757 0.25989485 0.04288002 -0.2937516
000290 ae 49 0f 3e 00 d4 4c bd 83 5f 1c be f3 97 92 3e
       0.1399295 -0.050006866 -0.1527081 0.28631553
0002a0 20 33 98 3d 08 da 3c be 18 c3 2c be 57 23 17 3e
       0.07431626 -0.18442547 -0.16871297 0.14759575
0002b0 36 cd a8 3e f2 c2 27 bd 33 c6 cd bc 8f 2b 57 bc
       0.32969064 -0.0409574 -0.025118923 -0.013132944
0002c0 95 c7 97 be 52 f6 94 3e 05 64 b6 3e a8 0a a2 be
       -0.29644457 0.29094177 0.35623184 -0.31648755
0002d0 a3 a1 1e 3e ce d0 ad 3e 5d 19 57 3e 8e 23 e1 bc
       0.15491347 0.33948368 0.21005769 -0.027482774
0002e0 69 81 ac 3e 51 97 92 3e 24 dc 3b 3e df 5c 66 3d
       0.33692482 0.2863107 0.18345696 0.056240913
0002f0 5b d1 6b bd 99 5c 59 3e 80 78 a9 3d fc 4d cc bd
       -0.057572704 0.2122673 0.08274937 -0.09975812
000300 8a 08 be 3e 64 37 dc 3e 70 14 aa 3c 97 50 86 3d
       0.3711589 0.4301101 0.020761698 0.0655834
000310 71 b6 23 3e e7 47 e6 3c f7 19 7e 3e 46 4e 58 3e
       0.15987565 0.028110458 0.24814592 0.21123609
000320 34 bf 93 be f4 52 0f 3a d7 2e bf 3e 35 92 5b 3e
       -0.28856814 0.0005467378 0.37340423 0.21442492
000330 90 04 76 3c 23 6e 1e be d4 51 24 be 1b c2 b4 be
       0.015015736 -0.15471701 -0.1604684 -0.3530434
000340 8d 98 85 bd 9f 65 55 3e 66 bb 51 3e cd ae 61 3e
       -0.065232374 0.20839547 0.20481643 0.22039337
000350 3c 4e 32 be 17 64 1a be ef 60 91 3d df 00 f0 3e
       -0.17412657 -0.15077244 0.07098567 0.46875665
000360 76 81 45 3d 6b ca b0 bd fe 36 0d 3e f0 01 02 be
       0.048219167 -0.08632358 0.13790509 -0.12696052
000370 10 ee 5c be 86 22 79 3e 73 34 1b be 1b da 88 bd
       -0.21575189 0.24329576 -0.15156727 -0.06682225
000380 aa c7 a9 be dc 1f af 3e e4 2a b4 3e 58 bc c2 3d
       -0.33160144 0.34203994 0.35188973 0.0950858
000390 f5 e8 d3 bd dd 07 7e be 40 d5 b5 be 0a a7 c7 3e
       -0.103471674 -0.24807687 -0.3551426 0.38994628
0003a0 64 a9 95 3e c6 84 a5 3e d4 80 87 3e b3 6a 23 3e
       0.29230797 0.3232786 0.26465476 0.15958671
0003b0 b0 a8 fe 3d ae 89 54 be 07 5d 8e be 03 ca 98 be
       0.12434518 -0.20755646 -0.2780535 -0.29841623
0003c0 cf 8a 28 3e 8a cd 27 be 17 85 b4 bd 6b 70 44 be
       0.16459201 -0.16387 -0.088144474 -0.19183509
0003d0 c0 cb 78 bd 08 3e 70 be 56 08 5f be ab 72 e2 3d
       -0.060741186 -0.23461163 -0.21780524 0.110570274
0003e0 d6 e2 ca bd 46 b8 52 3e 66 01 db bd 16 64 7a be
       -0.09906547 0.20578107 -0.10693626 -0.24452242
0003f0 31 b6 29 bd 2c 32 94 bd a3 79 42 bd 0f 1d 75 be
       -0.041433517 -0.07236132 -0.047479283 -0.23936866

conv1.bias f4 [32]
000000 59 55 71 3e 0f db d3 bd ab 7c 1b bd 10 4e 0b be
       0.23567714 -0.103445165 -0.03796069 -0.13603997
000010 6c c3 97 be 54 15 a6 be 53 92 88 3d 63 68 3b be
       -0.29641283 -0.32438147 0.06668534 -0.18301539
000020 73 6f 5b be 2b 0e d5 bc a8 24 d7 bc 5b db dc bd
       -0.21429233 -0.026007732 -0.026262596 -0.10784026
000030 ab 7a 2f 3c 56 cd 90 bd 14 5c 5c bd b3 6e 23 be
       0.010710399 -0.07070415 -0.05379875 -0.15960197
000040 10 0d 69 be c3 1a 62 3e e3 98 08 be f7 4d 1b 3e
       -0.22758889 0.22080521 -0.13339572 0.1516646
000050 2a d8 25 be af 2e 73 bc 8d 92 a9 3e 61 b7 4c 3e
       -0.16195741 -0.014842673 0.33119622 0.19991829
000060 52 e6 93 be ec 28 6b 3d 7d ff e8 3e 26 99 b3 3d
       -0.28886658 0.057412073 0.45507422 0.08769445
000070 f0 e3 71 3e bc eb 8d 3e 40 5f c1 bd c6 b0 8d 3d
       0.23622108 0.27718914 -0.094419956 0.069184825

conv2.weight f4 [64, 32, 3, 3]
000000 c8 c0 27 bd 50 f4 46 bc 24 bf 32 3d a8 76 f7 3c
       -0.040955335 -0.01214321 0.043639317 0.030207947
000010 ba ba 18 bd d1 8a 41 bd a1 ef 24 bd 22 31 6e bd
       -0.03728745 -0.047251526 -0.04026759 -0.058152325
000020 fb 3d 3a bd fc bf 6e bc 44 e3 22 3d d0 98 21 3c
       -0.045469265 -0.01457214 0.03976752 0.0098630935
000030 3d 94 37 bd c2 9f 41 bd f0 23 f0 3c 6b 88 33 bd
       -0.044819105 -0.047271498 0.029314011 -0.04383127
000040 55 be ed bb 17 90 e7 3c 67 68 df bc cd 8a d2 bb
       -0.0072553554 0.02826695 -0.027271463 -0.0064252377
000050 63 12 a8 bb fc 67 64 bc f0 c0 f4 bc 22 28 57 bd
       -0.005129145 -0.013940807 -0.029877156 -0.052528508
000060 b5 1a 43 bd 12 3d 01 bd 1e 1d 69 3d f6 28 e9 bc
       -0.04763289 -0.03155238 0.056912534 -0.028461915
000070 54 14 22 bd 26 04 6a 3c c9 0a 85 3c 36 3e 04 3d
       -0.039570168 0.014283216 0.016240494 0.03228589
000080 45 76 37 3d 1a 68 06 3d cc 4e 6f bd 17 3f ab 3b
       0.044790525 0.032814123 -0.058424756 0.0052260268
000090 3b 34 12 3d 3a 76 b2 bb 58 3a 0e bd e6 18 66 3d
       0.035694342 -0.0054462226 -0.03472361 0.05617609
0000a0 d1 8c b4 bc 9f 6a 09 bd 39 99 59 bd 68 7f 2c 3b
       -0.022039803 -0.033548947 -0.05312464 0.0026321057
0000b0 8f e8 d5 3c 35 b6 55 3c 31 ea 3e 3c 31 0b 37 bd
       0.02611187 0.01304393 0.011652515 -0.044688407
0000c0 f7 66 61 bd 77 01 88 3a 59 14 5c 3d c7 3e 0b 3d
       -0.055029836 0.0010376413 0.053730343 0.033995416
0000d0 0d 87 0c bd d0 a4 fa bb 0d ed 31 bd e5 df e8 bc
       -0.034308482 -0.0076490417 -0.04343896 -0.028427074
0000e0 c5 d6 2e 3c e9 6d 03 3d 3a ef 47 3d e1 97 5d bd
       0.010671322 0.03208724 0.04881213 -0.05409992
0000f0 5a 60 21 3d 8b 3a 2a bd 1e c3 b4 3c bf 3f 4c 3d
       0.03939853 -0.041559737 0.022065695 0.04986548
000100 91 e9 58 3a 38 97 5b 3d 80 a6 4d bd f0 60 b8 bc
       0.000827455 0.05361101 -0.050207615 -0.02250716
000110 fe c5 0c 3d 6b 56 52 bc 04 a0 45 bc 65 31 c9 bc
       0.034368508 -0.012837986 -0.0120620765 -0.024559686
000120 cd 5e 26 3d 5b c6 ec 3c e5 af 9a 3c 93 a2 07 bd
       0.040617753 0.028903177 0.018882701 -0.033114027
000130 54 ec 43 bd 2b d8 d0 3b ea 04 8f 3c 72 e0 de bc
       -0.047832802 0.0063734255 0.017458398 -0.027206633
000140 3d 10 87 bc 93 01 23 3d 11 d0 99 3b 4c 3c 2e 3b
       -0.016487235 0.039796423 0.004693993 0.0026586233
000150 2d 98 6d bc 84 92 5a bd 90 f0 62 bd 20 bf e6 bc
       -0.014501614 -0.053362384 -0.0554052 -0.028167307
000160 42 60 f5 bc 82 64 96 3c 44 86 8c bc 9d d9 bc bc
       -0.029953126 0.018358473 -0.017153867 -0.023052985
000170 75 1e 66 3d 4d 24 a8 3c c3 10 2c 3d a7 b0 e9 bc
       0.05618139 0.020525122 0.042008173 -0.028526617
000180 a4 2c c5 bc 22 6b b1 3c c4 cf 20 bd 06 c7 1d bd
       -0.024069138 0.02165753 -0.03926064 -0.03851988
000190 64 85 3a bb 32 8f b0 bc d1 ef 34 bd 11 2a 0f 3d
       -0.0028460855 -0.021552656 -0.04417402 0.034952227
0001a0 90 17 42 3d c8 9d 1c 3c 66 18 28 bc 7e 90 5f bd
       0.047385752 0.009559102 -0.010259723 -0.054581158
0001b0 1e d3 af bc 47 c9 75 3c d7 9d e3 3c 9e 18 f4 bb
       -0.021462973 0.015001602 0.027785225 -0.0074492237
0001c0 12 d8 be bc d9 7d 06 3d e4 37 40 bd 16 8b 18 3d
       -0.02329639 0.03283486 -0.0469283 0.037242018
0001d0 db 45 bb bc 19 6c 6c 3a 1a c9 3e bc d5 18 ea 3b
       -0.022860458 0.00090187934 -0.011644626 0.0071440735
0001e0 6e e0 91 bc ac 7f 2f 3d f3 c9 c8 ba a1 67 3c 3d
       -0.017807212 0.042846367 -0.0015318975 0.045997266
0001f0 e5 0f 68 3d 0c 2d eb bc dc 12 30 bd 95 a4 41 3d
       0.056655783 -0.028708003 -0.042986736 0.0472761
000200 e3 21 3d 3d 03 4a 38 bd 49 43 95 bb b5 02 6e bd
       0.046174895 -0.044992458 -0.00455514 -0.05810805
000210 8c 93 45 bd 83 77 3a 3c 75 6b 80 3c 7c a7 4c 3c
       -0.048236415 0.011381033 0.01567624 0.012491103
000220 fd 60 83 bc 2c ac 5e 3d 40 09 0a 3c 1f 6c 0e bd
       -0.016037459 0.054363415 0.008425057 -0.03477108
000230 cc a0 5a bb 4e d8 67 3c 5d 0b a9 3c 10 a9 2a bd
       -0.0033360003 0.014150692 0.020635301 -0.041665137
000240 f3 ea b4 3c a5 9c f6 bc 17 8e 48 bd 07 d5 03 bd
       0.022084689 -0.03010399 -0.048963632 -0.03218558
000250 dc c4 68 3d e6 53 4e 3d 22 22 58 3d 36 ae 0d 3d
       0.056828365 0.05037298 0.052766927 0.03458997
000260 aa 55 36 3d 32 39 01 bc 72 cd 04 bd 7e 31 f1 3c
       0.04451529 -0.007887172 -0.03242249 0.029442545
000270 e2 22 fa bc 91 e2 22 bd fb 25 9a bc 14 9b 4a 3c
       -0.030534212 -0.03976685 -0.018816939 0.012366075
000280 70 80 f8 3c fb 7d bb bc 4c 0e 0e bd 0e 3b 02 3c
       0.030334681 -0.02288722 -0.034681603 0.00794865
000290 dc 43 0e bd bd 23 1d bd 28 9e fb 3c b0 2d 22 bc
       -0.034732684 -0.03836416 0.030715063 -0.009898588
0002a0 e3 8c 5c 3d 3a ca 6a 3d 3a 62 90 3c 96 21 a6 3c
       0.053845298 0.057321765 0.017624963 0.020279687
0002b0 06 53 5e 3c d4 e9 71 3a e7 6f 8c bb 1d 4e 54 3a
       0.013569599 0.00092282635 -0.0042858007 0.0008098798
0002c0 4a 42 b4 3c 9e 68 60 3d 9e 33 7a bc 78 0d cc bc
       0.022004265 0.05478727 -0.015271096 -0.024908766
0002d0 76 cb 69 bc 80 36 e9 bc 5c 29 24 3c 81 29 34 3d
       -0.0142697 -0.02846837 0.0100196265 0.043984894
0002e0 c5 bc 3c 3d d6 a0 dd 3c b0 9f 31 bd e1 89 01 bd
       0.046078462 0.027054232 -0.04336518 -0.031625632
0002f0 0f 1e 54 bc 08 f4 31 bc 57 cf 9e 3b 90 8f 5d bd
       -0.01294662 -0.010861404 0.004846494 -0.05409199
000300 56 3e 96 3c 4a 20 38 bd fc b7 18 bd 68 a9 48 bd
       0.018340271 -0.04495267 -0.037284836 -0.048989683
000310 0a 4d 52 3d 75 8d 64 bd c3 12 36 3d e7 d1 01 bb
       0.051343 -0.055798966 0.044451486 -0.001980895
000320 e6 8e e0 bb 06 f7 16 3d 4a 77 b2 bb 8e 5e 17 3d
       -0.0068529723 0.036856674 -0.0054463493 0.03695541
000330 9a 81 2e 3d e8 8c 51 bd 04 be b9 3c 0e 41 36 3c
       0.042604066 -0.05115977 0.022673614 0.011123909
000340 85 94 4f 3c 0a f2 0c 3c d3 09 84 3c 40 38 e8 bc
       0.012669687 0.0086026285 0.016117966 -0.028347135
000350 bf 09 f7 bb f3 51 65 3d 31 28 22 3d 6e 14 11 bb
       -0.0075390036 0.055986356 0.03958911 -0.0022137421
000360 76 01 63 bd 71 40 29 3b f2 5b 24 bd 6d 45 44 3d
       -0.055421315 0.0025825764 -0.04012675 0.047917772
000370 ad 86 12 bd 82 69 8b bb 84 45 56 bc 9a cd 2b 3c
       -0.035772968 -0.004254521 -0.013078097 0.010486031
000380 27 20 63 3d 55 78 b7 3b 59 c9 0b 3d 21 59 3b 3d
       0.055450585 0.0055990615 0.034127567 0.045739297
000390 17 da 42 3d 1b b5 a6 bc 21 ed 57 bc e1 a3 e8 3c
       0.047571268 -0.02035003 -0.0131790945 0.028398456
0003a0 dc b7 83 bc 21 0a e2 3c ad ea 52 bc cf b3 23 bd
       -0.016078882 0.02759272 -0.012873334 -0.0399664
0003b0 bc 7c c4 3c d2 04 14 3c 19 38 d7 3c 73 c9 6f 3d
       0.02398526 0.009034352 0.026271867 0.058541726
0003c0 a8 c8 24 3d cb cd 64 3d 09 b1 4e 3b c2 9e 4f bd
       0.040230423 0.055860322 0.0031538627 -0.050688513
0003d0 eb 51 29 bd 0b ed 15 bd 84 b2 54 bd 19 f6 f1 bc
       -0.04133789 -0.036603015 -0.05192806 -0.029536294
0003e0 fb 2f 5e bd 7e ae 5e bd a9 39 10 bd a3 f0 6d bd
       -0.054244976 -0.054365627 -0.03521124 -0.058090817
0003f0 34 26 14 bd 8d 10 b8 3c 66 4e 49 3d 3a 97 8f bc
       -0.036169246 0.02246883 0.049147032 -0.017528165

conv2.bias f4 [64]
000000 fa 8f 70 bd 4b 55 7a bb d8 92 98 3d 26 c7 2b bd
       -0.058731057 -0.0038197811 0.07449883 -0.04193797
000010 f2 54 4c bd c4 d9 1c 3b 8c aa d1 bc 4a 2d 7d 3a
       -0.049885698 0.002393351 -0.025594018 0.00096579327
000020 0f b4 79 bd 12 b4 14 bc 8a 78 10 3d d3 78 6c 3b
       -0.060962733 -0.009076135 0.035271205 0.003608276
000030 ec af c4 3d 0f 18 c1 bd 39 a7 12 bd 34 46 7e bd
       0.09603867 -0.09428417 -0.035804007 -0.06207867
000040 58 60 44 3d 9f bd 76 bd 6d 6c 98 bc 4e 27 58 bd
       0.047943443 -0.06023943 -0.018606389 -0.05277186
000050 86 b2 39 3c 8c 94 65 bd e1 c4 84 bd 71 37 16 bd
       0.011334067 -0.05604987 -0.06482864 -0.036673967
000060 e9 b3 49 bd f2 41 19 3d 0b 2a 20 3c bb fa 6c bd
       -0.04924384 0.037416406 0.009775649 -0.057856303
000070 5f 95 5d 3d a9 be 9c ba 74 9c 5b bc 3e 03 7e bd
       0.05409753 -0.0011958677 -0.013404001 -0.06201481
000080 df 1b 8a bd 84 ae 44 bd fa 13 ac bd f1 a5 f6 bc
       -0.06743597 -0.048017994 -0.08402248 -0.030108424
000090 5b 28 e6 3c 95 b5 b7 bc 5a e7 c7 bd 25 69 b8 3c
       0.028095415 -0.022425452 -0.09760924 0.022511074
0000a0 7c 01 44 bd 68 fa 2c bd d4 41 31 3d a0 bc 79 bd
       -0.047852978 -0.042230994 0.04327567 -0.060970902
0000b0 b1 b5 84 bd f1 7e 0b 3d 2d 6c 39 3c 42 5a 62 bd
       -0.064799674 0.034056608 0.011317295 -0.055261858
0000c0 a2 b6 18 3d b6 c0 1e bd f7 b9 0b bd c9 f9 0a bc
       0.037283547 -0.038758002 -0.034112897 -0.008482405
0000d0 50 ce 64 bd 02 59 03 3d 00 53 c7 bd 20 14 cc 3c
       -0.055860817 0.032067306 -0.09732628 0.02491194
0000e0 38 64 5b 3d 88 d9 27 bd c2 0f 97 bd b9 2e 16 3c
       0.053562373 -0.04097894 -0.073760524 0.009166413
0000f0 f5 a5 31 bc 9b 65 5e bd 09 bf 4a 3c 57 7f 3a 3d
       -0.01084279 -0.054296117 0.012374648 0.045531597

conv3.weight f4 [128, 64, 3, 3]
000000 9b 91 08 3d 90 13 a2 3c 9e 9d ed bc 38 9b b3 bc
       0.033341985 0.019784719 -0.029005822 -0.0219246
000010 6b 1c 90 bc c6 5b 3d 3c 40 ff b7 3c 6b fe 00 bb
       -0.017591676 0.011557525 0.02246058 -0.0019682895
000020 6b eb 27 bd 2b 5a d8 bc a0 4c b4 bc f0 c3 e5 bc
       -0.040995996 -0.026410183 -0.022009194 -0.028047532
000030 f6 ba af 3c 12 2f 56 bb 0b 9b f3 bc 8b 12 cf bc
       0.021451455 -0.0032681865 -0.029737016 -0.025277397
000040 fb 5f f9 bc b1 39 0b bd 58 0b bb 3c 87 6e d4 bc
       -0.030441275 -0.033990566 0.022832558 -0.02593161
000050 be 6b 23 bd ee 92 12 3a ef 7f d6 bb c0 27 20 bd
       -0.039897673 0.0005591352 -0.0065460126 -0.03910041
000060 45 3f 97 3c 41 e1 dc b9 c9 26 9e 3a ae ef 95 3c
       0.018462786 -0.00042129497 0.0012066002 0.018302765
000070 06 4c ac bc 82 22 15 bd 2b a3 dc 3c 10 cc 1a 3d
       -0.021032345 -0.036409862 0.026933273 0.037792265
000080 27 82 1e 3d eb 2a b6 3c c6 df 1c 3d 3b b1 40 3c
       0.03869834 0.022237262 0.038299344 0.011761005
000090 d8 f6 19 bd 72 4f 0a 3c 17 e6 1e bd c8 8c 2d bd
       -0.037588924 0.008441793 -0.03879365 -0.042370588
0000a0 cf 01 47 3c d4 67 ee bc 41 eb 02 bd af 80 10 3d
       0.012146427 -0.029102243 -0.031962637 0.035278972
0000b0 7f 78 dc 3b f3 d9 91 3c 8b c0 4b bc e0 48 7f 3c
       0.0067282314 0.017804122 -0.012436043 0.01558134
0000c0 56 ed 2b ba 80 71 1f bc 20 41 02 bc 8e 50 fd 3c
       -0.0006558498 -0.00973165 -0.007950097 0.0309222
0000d0 2b 63 e9 bc 5b 78 52 bc 20 3f f9 3c d6 71 fe ba
       -0.02848967 -0.012846078 0.030425608 -0.0019412588
0000e0 0b 93 a7 3c 78 ac 90 bc 28 03 e5 3c b8 a2 f2 bc
       0.020455858 -0.017660365 0.027955607 -0.029618606
0000f0 c8 06 b7 bc 64 20 16 bd 17 51 08 bd 15 ca 09 3d
       -0.0223421 -0.036651984 -0.03328046 0.033639986
000100 ef b1 d3 3c 09 d0 95 3c 85 53 93 3c 23 9a d4 3c
       0.025841681 0.018287675 0.017984161 0.025952404
000110 e0 eb aa 3c 82 9a f9 3c 65 3d c1 bc e9 9b 1d 3d
       0.020864427 0.030469183 -0.023588846 0.038478766
000120 de a8 e2 3c 40 80 53 3c 6b f3 f5 bb e4 32 15 3d
       0.027668413 0.012908995 -0.0075058243 0.036425486
000130 56 77 35 bb 82 14 1f bd 68 3e 80 bc 80 82 8b ba
       -0.0027689538 -0.038837917 -0.015654758 -0.001064375
000140 e0 41 a2 3c dc 92 20 3c 38 c4 75 3b 22 75 f1 3c
       0.019806802 0.009800639 0.0037500989 0.029474799
000150 a6 fe c6 3c 59 89 e3 bc fd 05 ae bc 00 c4 e8 bb
       0.024291348 -0.027775453 -0.02124309 -0.007103443
000160 f6 87 d5 bb 0f 49 1a bd 9d 4a 53 bc 73 75 df 3c
       -0.006516452 -0.03766733 -0.012896207 0.027277684
000170 b0 1f 38 bd 51 ed 7c 3b 73 b1 89 3b 87 cf 9c bc
       -0.044952095 0.00385936 0.004202062 -0.019141925
000180 4b 4b 7b bc e4 13 ce bc e4 b5 32 bd de e6 19 bd
       -0.015337775 -0.025155969 -0.043630496 -0.037573688
000190 80 7b b5 3c 00 d0 a3 ba ab a5 ed ba 4b eb df bb
       0.022153616 -0.0012497902 -0.0018131038 -0.006833469
0001a0 1f 6c 21 bd a0 c1 de bb 3b 63 1d bd 5e 30 a8 3c
       -0.039409753 -0.0067979842 -0.03842471 0.020530876
0001b0 4d 98 71 bc 25 2f 94 bc 06 18 2d 3c 92 95 e0 bc
       -0.014745784 -0.018088887 0.01056481 -0.02741507
0001c0 12 cb 00 bd 9a b9 e0 bc e7 b3 ff bb 4c b9 f4 bc
       -0.031443663 -0.027432252 -0.0078034285 -0.029873513
0001d0 40 95 41 bd 20 a3 98 3c 5e 95 b9 3c a0 dc 8c bc
       -0.047261477 0.018632472 0.022654232 -0.017195046
0001e0 5b 3d 03 bd 20 0d e7 3c 1b 45 cf bc 42 55 04 bd
       -0.032040935 0.0282045 -0.025301507 -0.03230787
0001f0 3a ed 19 bd c0 14 29 3c 26 cc 1a 3c 3f 74 22 3d
       -0.037579753 0.010319889 0.009448087 0.039661642
000200 b3 30 86 bc 56 40 d5 bc 48 bd 26 3d 48 9f ea 3c
       -0.016380643 -0.026031654 0.040707856 0.028640404
000210 cf 0e 17 bd 1e da 1f bd 50 24 7e 3c b2 b9 b7 bc
       -0.036879357 -0.039026372 0.015511587 -0.022427414
000220 eb 3d 3e 3b 4a f2 0e bc 3e c1 7f bc ed e0 ff 3c
       0.0029028605 -0.008724758 -0.015610037 0.031235183
000230 da 08 f0 3b 0c 6b 32 3c 94 b6 11 bd e1 6c a8 bc
       0.007325274 0.01088978 -0.03557451 -0.02055973
000240 7b 8c 9f 3c 5b 9f bb 3c f6 30 91 3b 32 28 27 bd
       0.019476166 0.022903135 0.0044308854 -0.040809818
000250 3e 9d b7 bc 60 2c 28 3d 10 95 0a 3d d3 bd b3 3c
       -0.022413846 0.041057944 0.033833563 0.021941101
000260 fb 48 c7 bc 1e 26 b8 bc cb f1 76 3c 6e e3 0e bd
       -0.024326792 -0.022479113 0.015072296 -0.034884863
000270 ab 6c 9f bb 23 bd 82 3c bb 8c 86 3c 33 e5 a7 3c
       -0.004865249 0.015959328 0.016424527 0.020495033
000280 96 56 23 3b 36 13 e5 3c cc e3 26 bd a3 21 b0 bc
       0.0024923435 0.027963262 -0.040744588 -0.021500414
000290 60 75 52 bc de 92 c7 3c e2 3a 05 bd d0 b7 fb 3c
       -0.012845367 0.024362024 -0.03252686 0.030727297
0002a0 f6 b9 c5 bc c0 39 4e bc 63 95 fc 3c 24 11 27 3d
       -0.024136525 -0.012587011 0.030832952 0.04078783
0002b0 e0 bf 4c 3c bb da 11 bc 0b 7a f1 3c 56 31 04 bb
       0.012496918 -0.008902247 0.02947714 -0.0020171008
0002c0 10 b3 cd 3c 63 3e 8a 3c 56 2a 6e ba e3 0d 21 3d
       0.025109798 0.016875451 -0.0009085288 0.039319884
0002d0 bb 8d a4 3c f2 45 20 3d c6 2c 21 3d d0 f8 03 3c
       0.020087114 0.039129205 0.03934934 0.008054927
0002e0 a0 b5 9f bc 76 85 65 bc a0 3c d9 bb 90 c9 5e bc
       -0.019495785 -0.01400887 -0.0066295415 -0.013597861
0002f0 a0 74 8e 3b e7 e9 25 3d 73 d5 e0 3c 00 ef 3a 3c
       0.004347399 0.04050627 0.02744553 0.011409521
000300 60 6c b1 3c de b6 c0 bc 63 38 89 3c 68 7f 15 3d
       0.021658123 -0.023524698 0.01675052 0.036498457
000310 cb ca 5c 3c ab 19 28 3a 36 bb 03 3d 13 30 24 bd
       0.013476084 0.0006412516 0.03216096 -0.04008491
000320 e9 35 8d 3c 5e 37 06 bc dd 65 37 bd 14 76 82 3c
       0.01723762 -0.0081919115 -0.04477488 0.015925445
000330 18 60 2c bc 21 df 7c bc 31 88 d7 bc b0 69 61 bc
       -0.010520957 -0.015434057 -0.026310058 -0.013758108
000340 16 e0 d1 bb ea 94 27 bd a6 fe a5 3c ab 48 b0 3b
       -0.006404887 -0.0409135 0.020263027 0.0053797564
000350 56 84 7d 3c 50 d2 29 3d 76 56 18 bc ce d9 cc bc
       0.015473446 0.041460335 -0.009297958 -0.025006201
000360 01 58 06 bd 03 9e da bb 66 67 75 bc cf d1 15 3c
       -0.03279877 -0.0066716685 -0.014978265 0.009144261
000370 9c 22 c4 3a 07 4f ff 3b 15 27 97 bc e3 2c 20 bd
       0.0014963928 0.007791403 -0.018451253 -0.039105307
000380 aa 5f 8e bb 96 65 10 3c 38 46 a3 bc 0b 9f 73 bc
       -0.0043449 0.0088132825 -0.019930944 -0.014869462
000390 6b c6 f0 bb 02 9b 18 bd 23 4b 1f 3d 8e ea f5 3c
       -0.007347872 -0.037257202 0.038890015 0.030019071
0003a0 cb 34 f9 bc 8a a1 22 bd cf 99 14 3d e3 aa e3 3c
       -0.030420681 -0.039704837 0.036279496 0.027791446
0003b0 47 44 19 bd 87 af 64 3c 6a 50 ff bc fe 3f fb bc
       -0.03741863 0.013957865 -0.031166274 -0.030670162
0003c0 a0 71 ed bc 00 34 ab 3a 2c a8 08 3d ae 1d 9f 3c
       -0.028984845 0.0013061762 0.033363506 0.019423332
0003d0 e3 9a 1d bd 43 0b b8 3c a7 e6 1a 3d de e1 f0 3c
       -0.03847779 0.022466308 0.037817623 0.029404577
0003e0 3b ad 1d 3d 0b 79 c6 bc fb b4 ad bc 70 ab bd 3c
       0.038495284 -0.02422764 -0.021204462 0.023153037
0003f0 8d 93 02 bd 9c 04 82 bc f0 35 c7 3c ef 31 81 3c
       -0.031878997 -0.015871339 0.024317712 0.01577088

conv3.bias f4 [128]
000000 6b 62 e1 3c e7 57 48 3c eb 7b 1b 3d 2f e8 1b bc
       0.02751275 0.012227989 0.037959974 -0.009515806
000010 e1 7b e6 3c e4 56 02 bd ff 47 7f bc 2c 9b b1 bc
       0.028135242 -0.031821147 -0.01558113 -0.021680437
000020 0f 6d bb 3c 88 bf 06 3a 56 3d b1 bc d3 47 a9 3c
       0.022879152 0.0005140235 -0.021635693 0.020664131
000030 2b f1 f1 bb 9f 3d b0 bc 58 67 04 3d 57 2a e1 bc
       -0.007383486 -0.021513758 0.03232512 -0.02748601
000040 a2 5c 29 bd 96 69 d9 3c 59 11 93 3c c2 c9 35 bd
       -0.041348107 0.026539605 0.017952608 -0.044381864
000050 08 31 ee 3c 3f d3 95 3c 36 e0 62 bc 10 50 ca bc
       0.029076114 0.018289207 -0.013847401 -0.02469638
000060 8b 9e 15 bd 78 80 e0 3c 1c 8a 2b 3c a4 71 7f bc
       -0.03652815 0.027405009 0.01046994 -0.015591059
000070 30 60 89 bc 2b 35 2d bd c3 7e 9b bc a9 4a c6 3a
       -0.016769499 -0.042287033 -0.018981343 0.0015128452
000080 bf d4 5f 3b 6e 5d e3 3c ba f5 01 3d 40 ea 5f 3d
       0.0034153906 0.027754512 0.031728484 0.054666758
000090 dd 0c 87 bc ee 9a 4a 3c a5 dd 76 bc 13 e3 df 3c
       -0.016485626 0.01236604 -0.015067493 0.027329957
0000a0 16 19 fd bb 4e 68 ec bc 03 43 d7 3c 20 8f 9a 3b
       -0.0077239377 -0.02885833 0.02627707 0.004716769
0000b0 76 4e 01 bd 5f f6 21 bd 25 b0 fe bb 9e a7 4d ba
       -0.031568967 -0.0395416 -0.007772463 -0.00078451063
0000c0 d5 e5 7d 3c a4 81 fc 3c e6 32 5e bc ba dd 8c bb
       0.015496691 0.030823536 -0.01356194 -0.004298893
0000d0 ca ee 0f bd 41 63 31 3c 86 dc 49 bd a3 1d 98 bc
       -0.035139836 0.010826887 -0.049282573 -0.01856882
0000e0 a5 db bc bc 43 56 f3 bc ab ec af 3c b6 63 e1 bc
       -0.023053953 -0.029704219 0.021475157 -0.027513366
0000f0 50 32 94 3c 7a 57 99 bc 91 87 06 bd bb a5 c0 bc
       0.018090397 -0.01871847 -0.03284413 -0.023516526
000100 e7 ca 99 3a fb 9e b4 bc fa 87 60 3c 7e 53 8f 3b
       0.0011733443 -0.022048464 0.013704294 0.0043739667
000110 b4 a6 86 3b 09 d5 ab bc 8f cc a8 3b da c1 2b bb
       0.004109228 -0.020975607 0.0051513384 -0.0026208074
000120 78 3d 08 3d 08 93 ac 3c 25 60 24 3d 7c 63 28 bd
       0.033261746 0.021066204 0.040130753 -0.0411105
000130 9c e2 ac 3a b2 16 d2 3b a8 3a b0 3b 57 d6 2e 3c
       0.0013190093 0.006411397 0.005378086 0.01067122
000140 9f 87 07 bd 8f 54 5b bd 0c ab 1b 3c 2a 0a db 3c
       -0.033088323 -0.05354744 0.00950123 0.026738245
000150 26 ba 88 3c 6b c6 a7 bc a7 eb f8 bb e5 b2 2f bc
       0.016690325 -0.020480355 -0.0075964513 -0.010723804
000160 52 38 cc 3b 5e ae ff 3c 45 50 a4 3c e3 ba 05 3c
       0.0062323 0.031211074 0.020057807 0.008162233
000170 26 02 ca 3a 7f b2 c6 ba fa a5 00 bd 2a 14 cd bc
       0.0015412017 -0.0015159397 -0.031408288 -0.025034029
000180 d6 bb ec ba 07 0f e1 3c 6e 72 03 3d 8e 20 2a 3c
       -0.001806135 0.027472986 0.03209155 0.010383738
000190 6b 0d e1 3c 56 1b 2e 3b 22 9e d8 bc 5e 35 d6 bc
       0.027472218 0.0026566586 -0.026442591 -0.026148494
0001a0 17 f7 50 bc fd f8 27 bc 4f 31 0e 3d 63 f9 f1 bc
       -0.012754223 -0.0102522345 0.034714993 -0.029537862
0001b0 92 67 84 3c 38 87 2e bd 87 2a 8f 3b f3 3d 2b 3c
       0.016162667 -0.042609423 0.0043690833 0.010451782
0001c0 f8 37 27 bb 40 c6 f4 bc 3b 60 0b bc dc cf 73 bb
       -0.0025515538 -0.02987969 -0.00850683 -0.0037202751
0001d0 2e fd e9 3c 5d b3 df 3c 63 25 a3 3c 93 21 1f bd
       0.028563108 0.027307207 0.019915288 -0.03885038
0001e0 8d 9d 89 3c 8c f2 d3 bc 7f 1d 99 3c 00 dc 44 3a
       0.016798759 -0.025872491 0.018690823 0.0007509589
0001f0 ab 9d 20 ba c2 4e 51 3a d9 16 f7 ba 79 01 b1 bc
       -0.000612701 0.0007984453 -0.0018851414 -0.021607148

fc1.weight f4 [128, 1152]
000000 82 69 bd 3c 5a 1f ea bc 58 55 e1 3c 76 e2 96 3c
       0.0231216 -0.028579403 0.027506515 0.018418532
000010 40 e7 f9 39 01 52 54 3b 53 8c dc bb de f6 8b bc
       0.00047665276 0.003239751 -0.006730595 -0.017085489
000020 42 3d 89 bc af 12 2f 3c 17 98 35 3d 9a 64 36 3a
       -0.016752843 0.010685607 0.044334497 0.000695774
000030 2b e3 24 bc 5c 2a 85 3d f2 23 9c bd 45 c4 ba bc
       -0.010063927 0.0650222 -0.076240435 -0.022798667
000040 6e c8 57 bc cc ab 8b bd 9a 9d 7d 3c 29 c8 be bb
       -0.013170345 -0.06819877 0.01547947 -0.005822201
000050 ad 4b ca 3b 4c 6c 8a bc b0 6d c5 3c a0 97 3a 3c
       0.006173572 -0.016897343 0.024100155 0.011388689
000060 e6 a2 b8 bc e6 f4 a9 3b ad 48 23 bb 3c 64 ea 3c
       -0.022538614 0.005186665 -0.0024915144 0.028612249
000070 3f d7 b2 3a af dc a4 bc 35 d6 60 bb b0 d0 f9 bc
       0.0013644471 -0.020124761 -0.0034307365 -0.030495018
000080 cd a3 03 bc be a7 3f 3c 0b e7 4d 3d ef e0 e6 3c
       -0.008034659 0.011697708 0.050269168 0.028183429
000090 e6 29 cc 3c 42 90 ce 3b cb f6 c3 bc 4a 29 a3 b9
       0.024922322 0.006303818 -0.023921391 -0.00031120545
0000a0 ac 6e 9c bc c5 5e e0 bb b5 0c e6 bb eb 5f a1 bb
       -0.019095741 -0.006847235 -0.0070205578 -0.0049247644
0000b0 93 2b c8 bb 7b 72 90 bc 18 25 ec bb 62 8f a1 3b
       -0.00610871 -0.017632714 -0.0072065704 0.0049304226
0000c0 9c c8 42 3c 32 e7 1a 3b f8 38 44 3c 2e 6c 69 b9
       0.011888649 0.0023636338 0.011976473 -0.00022260912
0000d0 7d ca 23 3a 7a 6a a9 bc 9c 4c d3 ba 1f b3 e3 bc
       0.00062481296 -0.020680655 -0.0016120854 -0.027795373
0000e0 e0 12 91 3c a2 7b 81 3c 73 17 d6 3c 86 aa bf 3c
       0.017709196 0.015806023 0.026134228 0.023396742
0000f0 af 3f ab 3c b1 66 20 bc 43 c3 89 bc 2b eb b2 bc
       0.02090439 -0.009790109 -0.01681674 -0.021840652
000100 0e bc a7 bc 3d 06 32 3c 2f 4d 38 3c 50 c8 33 bc
       -0.020475414 0.010865745 0.011248871 -0.010973051
000110 5e 25 6a 3c e9 a3 dc bc 5b 7d 8a bc 8d e2 e4 bb
       0.014291136 -0.026933627 -0.016905477 -0.006985015
000120 57 be 39 3a eb ea 79 3c 23 71 2d 3c 83 8a fd 3b
       0.0007085553 0.015253763 0.010586056 0.007737459
000130 04 90 21 bc c2 c1 89 3c 38 96 b2 3c a8 6e 78 3c
       -0.009860996 0.016816024 0.021800146 0.015163101
000140 2e 75 c5 3a 4e 9c 3e 3d 59 ca e7 3c 24 cc 31 3c
       0.001506483 0.046535783 0.02829473 0.010851894
000150 72 50 9f bd 90 44 ac bd 86 36 3d 3d 73 8b 6e 3b
       -0.077790156 -0.08411515 0.046194576 0.0036399036
000160 9a c1 48 3d 6c 8d 0d 3d eb 0d 8a bc c4 be ee bc
       0.049012758 0.0345587 -0.01685234 -0.029143699
000170 f1 bf b8 bc a8 f7 ae bc d0 19 2f bc b7 ef d3 bc
       -0.022552462 -0.021358326 -0.0106873065 -0.02587114
000180 c6 05 95 3c 3d ad 65 3c ed 4b 12 bc 43 23 1d 3d
       0.01819123 0.014018354 -0.008929235 0.038363706
000190 e4 2e 12 3d db 56 82 3c 0f 87 79 3c 75 41 a7 bd
       0.03568925 0.015910557 0.015229954 -0.08166782
0001a0 77 46 b2 3c a1 f9 13 bd ac cb a1 bd f5 fb e6 3c
       0.021762116 -0.036126737 -0.079001755 0.028196314
0001b0 87 36 4c ba 8f b4 e0 bc 62 ee cd bc 55 6a ca 3c
       -0.00077901076 -0.027429847 -0.025138084 0.024708906
0001c0 d9 21 89 bb f6 c1 5b bc c4 b2 8b 3c 50 ca a0 bc
       -0.004184943 -0.013412943 0.017053016 -0.01962772
0001d0 49 43 80 3c 95 08 b6 3c 2a 2d 5e bc 30 a0 81 3c
       0.015657084 0.02222089 -0.013560573 0.015823454
0001e0 29 72 6f bc 94 03 f4 bc b4 c9 c0 3b c1 f4 82 bc
       -0.01461462 -0.029786862 0.00588342 -0.015985848
0001f0 bd db f6 bc aa 0c 4b bc 25 42 31 bc d5 f2 10 bc
       -0.030134076 -0.012393156 -0.010818993 -0.008846958
000200 95 a8 c4 3c 04 de 1c 3c 4f ba cf bc 69 91 15 3b
       0.024006167 0.009574417 -0.025357394 0.0022822267
000210 56 6c fd bc ac ff 15 bd 24 1c ec ba ff 7b 19 3d
       -0.030935448 -0.03662078 -0.0018013758 0.037471768
000220 21 35 2a 3d 70 7c f0 3c 15 a6 61 3c 7e 1a d9 bc
       0.041554574 0.029356211 0.013772507 -0.02650189
000230 3d 76 4d 3b d7 d4 9a 3c cc a8 e7 bc 51 62 7f bc
       0.0031350993 0.018900318 -0.02827873 -0.015587405
000240 60 68 a8 bc 4b cf ec 3c 15 8f c7 bc 04 2c 8b 3c
       -0.020557582 0.028907439 -0.024360219 0.016988762
000250 f9 20 61 bb 21 61 ba 3c 86 d1 eb 3c a0 7e b8 3c
       -0.0034351929 0.022751393 0.028786432 0.022521317
000260 81 9f b9 bc 17 20 79 3d aa 01 f2 bb 76 1e 6c 3c
       -0.022659065 0.06082162 -0.0073854523 0.014411559
000270 d3 c5 c5 bd 00 bb 19 bd 63 ef 36 3d d3 aa 0d 3c
       -0.096568726 -0.037531853 0.04466189 0.008646685
000280 69 9a 96 3d a3 ef 02 3d cc 9b 15 bd bb 79 b3 3c
       0.0735367 0.031966817 -0.036525533 0.021908632
000290 83 f6 69 3a 9f f3 1e bd 30 0b 3e bc a4 84 fe bc
       0.0008924978 -0.038806554 -0.011599347 -0.031069107
0002a0 69 97 7d bd 66 a7 d5 3c 88 2b 8b bc 14 e3 a7 3c
       -0.061911974 0.026080798 -0.01698853 0.020494021
0002b0 57 83 93 3c e4 9c 8e bb c3 56 fd bc 43 d5 e9 bb
       0.018006964 -0.004352199 -0.03092516 -0.0071360185
0002c0 3b 22 bd bc 72 0c fb bc e2 f6 85 bc 2a 0d f2 ba
       -0.023087611 -0.030645583 -0.016353074 -0.0018467058
0002d0 c8 96 de bc 71 0c b9 bb 98 e6 9b bc d7 e2 fe 3b
       -0.027171507 -0.005647235 -0.019030854 0.0077785063
0002e0 18 21 d7 3c 30 45 a7 bc 0a 80 96 bc c6 77 47 3c
       0.026260898 -0.020418733 -0.0183716 0.012174552
0002f0 c1 71 6c ba 63 7c 48 3c 13 4b 3b 3c 97 c3 dc bb
       -0.0009019636 0.012236687 0.011431473 -0.0067371833
000300 77 c2 a1 3b ce e3 e1 ba fa e8 b1 bc be 0c f3 3c
       0.004936512 -0.0017234029 -0.021717537 0.029669162
000310 b0 1c b7 bd 7b 6a 89 bc 5e d6 b2 3c fc 33 91 3b
       -0.089410186 -0.016774407 0.021830734 0.004431246
000320 98 7a d1 3b d6 3a 3c bc 13 98 a4 bc 8f 91 64 39
       0.006392788 -0.011488637 -0.020092046 0.00021797999
000330 c8 93 a1 bc 7f c3 72 bc d4 fb dd 3c 53 10 44 3c
       -0.019723788 -0.014817118 0.02709762 0.011966783
000340 47 b6 cd 3c d0 25 8d bc 9d 71 9b 3b be dc 39 3c
       0.02511133 -0.017229944 0.0047437684 0.011344133
000350 5e d7 24 3c d1 d8 81 bc f0 9a 9d bc 86 04 b5 3c
       0.010061113 -0.015850456 -0.019238919 0.022096884
000360 71 bb ba 3c 38 da 28 bc 37 11 2b 3b ca 74 6c bb
       0.022794457 -0.010305934 0.002610279 -0.0036080354
000370 7f 82 47 bd a5 ba c8 bc 39 93 bc 3c a1 69 12 bd
       -0.048708435 -0.024503062 0.02301942 -0.035745267
000380 a6 5d 1e bd 2c 32 f9 3b c4 ff 8e bc a4 f4 b4 3c
       -0.03866353 0.007604858 -0.017455943 0.02208931
000390 ca 1a 85 bc d3 cd 33 ba 05 95 42 3b 55 b5 a1 3a
       -0.016248126 -0.00068589783 0.0029690873 0.0012337366
0003a0 92 0a 87 3b 78 0d 0d 3c 0f ff ff 3b eb e3 fc 3a
       0.004121133 0.008609168 0.007812388 0.0019293999
0003b0 39 03 b0 3a 50 b0 94 3c df 11 8e 3b 10 33 b8 3b
       0.0013428695 0.018150479 0.0043356265 0.0056213215
0003c0 21 0e 85 3c ba 87 3e 3d 17 c8 8a 3c cd 7c 9e 3c
       0.016242089 0.046516158 0.016941113 0.019346619
0003d0 71 a8 e6 bc cb 39 af bc 49 2a 8e 3b e0 fe bf ba
       -0.028156491 -0.021389863 0.004338537 -0.0014648102
0003e0 f1 70 48 bc 55 c0 b5 ba 6d 76 5e 3c 2b 0e b0 3c
       -0.012233959 -0.0013866524 0.01357804 0.02149113
0003f0 3a 26 02 bc 62 14 d7 3b 41 08 1c 3d 4d 6f b5 bd
       -0.007943684 0.006563709 0.03809381 -0.088591196

fc1.bias f4 [128]
000000 29 44 85 bc 03 0a a2 bb c3 00 00 3d e8 13 a4 3b
       -0.016267853 -0.004945041 0.031250726 0.005007256
000010 c6 33 18 bd 84 36 de bc d1 3e b7 bb 2d 3b ce bb
       -0.03715875 -0.027125604 -0.005592205 -0.0062936754
000020 81 e1 d1 bc a9 56 0d bd 55 c4 1e bb c2 5a e7 3c
       -0.025620224 -0.034506474 -0.002422591 0.028241519
000030 63 3e 58 bb 68 57 79 3c 0e bb 18 39 1d 05 17 3d
       -0.003299617 0.015218593 0.00014565533 0.03687011
000040 d3 e4 80 ba a7 82 d6 3c 1e 84 eb ba d5 8c a8 39
       -0.000983382 0.026185347 -0.0017968451 0.00032148385
000050 88 4c c2 bc 42 16 7c 3c e3 27 54 bc bd cd 06 bd
       -0.023718134 0.015386166 -0.012948963 -0.03291105
000060 ff 14 d6 bc f6 35 13 3d 14 2c 88 38 fa 81 91 bc
       -0.026133059 0.035940133 6.4931955e-05 -0.017762173
000070 c7 d8 a4 bc 66 50 28 bc b0 b3 ff 3c 99 23 e2 3c
       -0.020122899 -0.010273075 0.031213611 0.027604865
000080 b2 f3 4e 3c 8c 93 d8 bc e5 1f ff bb 72 34 03 3c
       0.012631344 -0.026437543 -0.0077857845 0.008008109
000090 d0 c9 31 bb e5 d6 23 3c ad 34 dc ba a2 64 0b bc
       -0.0027128346 0.009999965 -0.0016800367 -0.008507879
0000a0 40 9e 27 3b 8a 95 94 bc 78 5b 89 bb c4 0b ee bc
       0.0025576502 -0.018137712 -0.004191812 -0.029058345
0000b0 97 d5 6a bc 61 a5 df 3c 14 44 20 bd 06 e7 98 3c
       -0.01433315 0.027300538 -0.039127424 0.018664848
0000c0 bd e2 19 3c eb bb d9 3c 53 9d 8a 3c 0e 87 34 3c
       0.0093924375 0.026578864 0.016920721 0.011018528
0000d0 1e ed a0 3c b2 1a c7 3b f2 cf e7 bc e2 0d 51 3b
       0.019644316 0.0060761804 -0.028297398 0.0031899144
0000e0 ac 2d e5 3c 23 43 1f bb 63 b3 f6 3b 6e e8 6f 3c
       0.02797588 -0.0024301491 0.007528709 0.014642818
0000f0 cf ba 72 3c be 60 96 3c 44 b3 28 3c 3a f6 9a bc
       0.014815046 0.018356677 0.0102966465 -0.018916238
000100 c3 85 e4 3c 0b ca e4 bc 79 09 b8 bc cb e7 e1 bc
       0.027895814 -0.027928373 -0.022465454 -0.027576348
000110 e6 31 de 3c 02 c3 0b bd 0f 49 f6 bc e6 e9 f6 bb
       0.027123403 -0.03412152 -0.030064134 -0.007535207
000120 20 9c a6 3c 0d 27 7a bc 98 30 b0 bc cd fe d1 bc
       0.020338118 -0.0152680995 -0.021507546 -0.025634194
000130 25 ee dc bc 73 37 b8 bc 2c 1d 12 3c 4c b2 c5 bc
       -0.026969025 -0.022487378 0.008918088 -0.02413287
000140 37 23 43 bc b2 4e b2 bc 98 ff d1 bc 01 48 99 b9
       -0.011910251 -0.02176604 -0.025634572 -0.0002923608
000150 9f 20 4b ba eb 9a 33 3a 52 9a 0a bc 03 f6 64 bc
       -0.00077486964 0.00068513927 -0.008459644 -0.013974669
000160 69 29 6e 3c 90 c7 9c bc 8c c1 9e 3c 43 ca 94 3c
       0.01453624 -0.019138128 0.0193794 0.018162852
000170 56 8f 1c 3d 09 4d 84 3c 0d 74 fb bb 0b 8c be bb
       0.038222633 0.016150014 -0.0076737464 -0.0058150343
000180 8c 96 12 3b 75 4f 41 bc 55 28 9f 3b 06 91 ff bc
       0.0022367565 -0.011798729 0.004857103 -0.031197082
000190 d3 56 ad bc 21 6e 79 ba 26 ab d2 bc ec bb 76 3a
       -0.021159565 -0.00095150067 -0.025716376 0.0009412158
0001a0 71 95 c1 3c 8f f0 5a 3c e8 ae 21 bd 17 fe 29 3c
       0.02363083 0.013363018 -0.039473444 0.010375521
0001b0 0c 2e ac bc ea 56 99 3b df 3c dd bc 9f a1 3f 3a
       -0.02101805 0.0046795504 -0.027006565 0.0007310155
0001c0 4d 82 cd bc 0d 20 05 3d 6a 26 dc 3c ab 88 41 bc
       -0.025086546 0.03250127 0.026873786 -0.011812369
0001d0 5b 0e a4 bc be db ae 3c e7 7c 66 ba 47 a2 b3 3b
       -0.020026376 0.021345016 -0.00087924156 0.0054819915
0001e0 16 9a 4b 3c e6 af 25 bc db 50 2c bb 9f f2 4e bc
       0.012426874 -0.010112738 -0.002629331 -0.012631088
0001f0 33 71 a8 3c 67 1f 91 bc 8a da 08 bd c8 88 bb b9
       0.02056179 -0.01771517 -0.03341154 -0.0003576933

fc2.weight f4 [6, 128]
000000 b9 99 91 bd da 93 1a 3c 19 ff 81 3d 6b b0 a8 3d
       -0.071093984 0.009434665 0.06347484 0.08236774
000010 bf 44 ad 3c a8 d1 8a 3a 28 ae 83 bd f1 11 9c 3c
       0.021150945 0.0010591047 -0.06429702 0.019051524
000020 1a d1 b9 bc b3 c2 1e bc fa 79 9c 3c 62 3e d1 3a
       -0.022682715 -0.009689975 0.019101132 0.0015964026
000030 cc 8d 67 bd 17 f5 79 3d 4e ae 68 3d ed 17 94 3d
       -0.056531712 0.06102475 0.056806855 0.07231126
000040 c3 d1 40 bc c9 78 0a 3e 79 b5 34 bc a4 f2 79 bc
       -0.011768761 0.13522638 -0.011029595 -0.015255604
000050 d4 a0 82 bd 59 f0 ab 3d 39 20 a1 3c e9 2f 5e bd
       -0.06378332 0.08395452 0.019668685 -0.05424491
000060 28 a9 79 bc 85 89 e4 3d 0c 16 82 bd b9 0b e3 bc
       -0.015238084 0.11159042 -0.06351861 -0.02771555
000070 5b d8 86 3d 37 c4 72 bd f6 18 c8 bd f4 21 ca 3d
       0.06584235 -0.059269156 -0.09770386 0.09869757
000080 12 fc d7 bd c3 4d 42 3c ab e0 31 3d c1 8d c2 bd
       -0.105461255 0.01185936 0.04342715 -0.09499694
000090 74 56 98 bd f2 10 98 bd 33 1b e8 3c 19 a6 85 3c
       -0.074383646 -0.07425107 0.028333282 0.016314553
0000a0 f6 48 e0 bd 7e fd 54 bd fe 47 fd bd 8c 1f ce bc
       -0.10951416 -0.05199956 -0.12367247 -0.025161527
0000b0 f6 c1 a0 3d ac 73 cb bd e4 d4 ed 3b 51 b4 6b 3c
       0.07849495 -0.09934172 0.0072580446 0.0143862525
0000c0 61 50 b3 bd 71 e1 dc 3c 27 df ec bb a6 78 a6 bd
       -0.087555654 0.026962968 -0.0072287503 -0.081284806
0000d0 83 46 28 be a8 97 c5 bd fe 7d 8b bd 40 6d 7d 3d
       -0.16433148 -0.09648067 -0.068111405 0.061871767
0000e0 83 7c b3 3d e7 49 5f bd 06 da 0b be 8c ce a5 3d
       0.08763983 -0.05451384 -0.13657388 0.08096036
0000f0 1b e4 97 bd b5 b3 0e be 43 1c e2 bd 98 c9 8c bd
       -0.074165545 -0.1393574 -0.11040547 -0.068743885
000100 ca 76 1d 3e ca 4c 87 3b 92 ea 86 3d 68 b6 ae bd
       0.15377346 0.004129027 0.065877095 -0.08530885
000110 a5 37 b2 3b 80 99 59 bd 1e fc be 3b 23 5d 19 bd
       0.0054387623 -0.053124905 0.0058283946 -0.037442338
000120 c1 68 62 3d 0a 5e 26 be 54 71 32 bd 68 95 cb bb
       0.055275682 -0.1624681 -0.04356511 -0.006212879
000130 5f 4b ce bb 6b 4a ac 3d 06 f3 12 be c4 8b 1e be
       -0.006295606 0.084126316 -0.14350519 -0.15483004
000140 8f 56 1b 3e 9f f8 dd bc 7b 68 85 3c 23 3f ca bd
       0.15169738 -0.02709609 0.016285172 -0.098753236
000150 5a 95 2f bd b6 d2 66 3d 40 7b 13 bd c6 d7 85 3d
       -0.042867042 0.056353293 -0.036006212 0.06535296
000160 30 5e 9e 3d 38 e3 e6 3d 48 f6 db 3c bf 5a 7e 3d
       0.077328086 0.11273807 0.026850834 0.06209826
000170 23 31 bf 3c 42 dd 49 be 2b af fe 3c 37 3d 77 3d
       0.02333886 -0.1971331 0.031089386 0.060361113
000180 4b 2a 5e 3d 6f 11 ee bc b3 ff 8e 3d 01 d4 eb bc
       0.054239552 -0.029061047 0.069823645 -0.028787615
000190 85 96 28 be 80 63 19 bd 59 8d 33 3d c6 0e 22 3e
       -0.16463669 -0.037448406 0.04383597 0.15825948
0001a0 87 bb 99 bd ee eb 13 3c 93 c7 62 3d 9a 1a 9e bd
       -0.07506471 0.009028418 0.05536611 -0.077199176
0001b0 05 6a 95 3d d6 b6 46 3a 91 fd c9 bb 44 ac 65 bc
       0.07295612 0.0007580345 -0.0061642607 -0.014018122
0001c0 ef 1f 02 3c 8f 80 05 3d 5b 5a 95 3d b0 15 6c 3c
       0.007942184 0.032593306 0.072926246 0.014409468
0001d0 9e d2 37 be 89 cd da bd fa 27 a1 3d 9c fa 69 3d
       -0.17951438 -0.10683734 0.07868953 0.057123765
0001e0 2e d0 94 bd 6c 64 90 3d 47 ba 4a bd 1e 2d b6 bd
       -0.072662696 0.07050404 -0.049494054 -0.08895324
0001f0 d7 2e dc 3c f1 d8 9f bd 3f 43 0d 3d fd f8 a2 bd
       0.026877804 -0.0780505 0.03448796 -0.07957647
000200 5b 5a aa bd bf e5 a5 3d 5f 42 2c be 4f 5e 44 be
       -0.08318015 0.08100461 -0.16822194 -0.19176601
000210 dd a1 54 bd f4 4c 89 3b 00 0e 86 3c d5 24 63 ba
       -0.051912177 0.0041900817 0.016364098 -0.0008664851
000220 7f 0c 83 3d 10 09 24 bc 13 15 32 bd 35 c4 c9 3c
       0.06398868 -0.010011926 -0.04347713 0.024629692
000230 6b ec ab bc d6 d8 92 bd 40 c3 a5 bb 41 12 60 be
       -0.020986756 -0.071702644 -0.005058676 -0.21881963
000240 6a a1 d7 3c 9c aa b5 bd 4b 4c 94 3d 8b 06 85 bd
       0.026322085 -0.08870432 0.07241114 -0.064953886
000250 43 98 7f 3d 21 2c 9d 3d 0f 85 82 bd 2f 6a ed bc
       0.062401067 0.076744325 -0.06373035 -0.028981296
000260 5c 56 f3 3c b2 42 16 be 85 f9 e5 bc 4e 54 5a 3d
       0.029704265 -0.1467388 -0.028073082 0.053303055
000270 df 4a 0f 3d 32 fc 2f 3d 5b ec 90 3c 3a f9 41 be
       0.034983512 0.04296512 0.017690828 -0.18942729
000280 4f a6 f3 3d 3a 27 c1 3c 2f 27 5e 3c 99 a3 34 3d
       0.11896955 0.023578275 0.013559147 0.04410133
000290 33 c9 5c bd e0 cb 36 3d ad 8f 65 3d c7 27 44 3c
       -0.053902816 0.044628024 0.056045223 0.011972374
0002a0 aa 89 42 3d ee d1 3b bd 04 b5 f6 3d 75 48 16 bc
       0.047494568 -0.0458545 0.12046245 -0.009172549
0002b0 1e ba 5b be 82 0e a8 3d 8d 20 b6 bd d1 78 68 3d
       -0.21457717 0.08205892 -0.08892927 0.056755845
0002c0 8f 6f c7 bd 2e b5 3f be 8e 04 69 3d b8 d7 8e 3d
       -0.09738075 -0.18721458 0.05688911 0.06974739
0002d0 98 7c 14 bc 74 d6 a3 3d ca 34 8f bd a7 e5 48 bd
       -0.009062909 0.07999888 -0.069924906 -0.04904714
0002e0 2a 51 cd bc 49 f7 be bb 5f 54 25 3d 60 8c ab bd
       -0.025063116 -0.0058278185 0.040363666 -0.08376384
0002f0 e6 a6 81 bd 66 16 d8 3d 99 1e e6 3d 5f b6 d9 bc
       -0.063306615 0.10551147 0.11236305 -0.02657622
000300 30 12 9e bd 93 e4 00 bd 41 01 51 3d de fb 87 3c
       -0.07718313 -0.031467985 0.051026586 0.016599592
000310 c0 d6 3b be 2d 30 b9 bd 06 09 ea 3c 2e e6 bd bd
       -0.1834364 -0.09042392 0.028568756 -0.09272419
000320 6b e4 09 bd b4 59 32 3e 56 1e b5 3b 47 d8 78 3d
       -0.033665102 0.17417032 0.005527298 0.060753133
000330 43 8a 3a bd 0e 7d 72 bd 49 7c 35 3d 0f bd ab 3d
       -0.045542013 -0.059201293 0.04430798 0.083856694
000340 9e 17 db 3c 28 01 93 bd 42 51 3b 3d 84 86 33 3e
       0.02674466 -0.07177955 0.04573179 0.17531782
000350 ab 46 92 bd 51 a6 75 3d f0 22 2f 3d 43 db 32 be
       -0.07142385 0.059973065 0.04275793 -0.17466454
000360 0d 26 d8 bd 13 9e d0 bd cf b1 8a bd ad c2 ed bc
       -0.105541326 -0.101864 -0.067721955 -0.029023493
000370 fa 1e 42 be 77 53 94 3d 7b cb b1 3d 13 ea 15 be
       -0.18957129 0.07242482 0.08681389 -0.14640073
000380 ff 49 8b bd f4 f6 b4 bc bf 79 8d bd 41 3a 24 3d
       -0.06801223 -0.022090413 -0.06907987 0.040094618
000390 20 4d 10 3d d4 7a ca 3d 6f 4a bd bc 7f 4b 88 bc
       0.035229802 0.09886709 -0.023106782 -0.016637562
0003a0 76 03 05 3e 9c 5d 75 bd 27 9a 47 bd 0b 5d 0a bc
       0.12989601 -0.059903726 -0.048730996 -0.008445035
0003b0 e8 34 96 bc d2 73 e3 3b d0 c4 6b 3d f1 34 44 be
       -0.018335775 0.006941297 0.057560742 -0.1916082
0003c0 9a 9d 45 3c 5d d6 f3 3c d1 bb cd bd 14 37 e5 3a
       0.012061501 0.029765302 -0.10045589 0.0017487728
0003d0 15 7b ea 3d 30 81 06 3e e2 06 c4 bd 7c 0d 16 3b
       0.11449257 0.13135219 -0.09571625 0.002289622
0003e0 36 6f b4 3d 78 a3 50 bc ee 6a 7a 3d 81 30 9a 3d
       0.08810274 -0.0127342865 0.061137132 0.07528783
0003f0 ae 8a 25 be b1 00 75 3d c1 42 7a 3d 02 be a1 bd
       -0.16166183 0.059815113 0.061098818 -0.07897569

fc2.bias f4 [6]
000000 a4 11 c4 bd 87 c8 ed bd 91 54 b1 3d 22 d2 79 bc
       -0.09573677 -0.11610513 0.08658708 -0.0152478535
000010 0f 31 6f bb 55 71 c8 bc
       -0.0036497747 -0.024468103
